…
"Hoàng Nguyễn Việt","userId":"17495966322171894693"},"user_tz":-420},"id":"zf5tK2o_jQ_j","outputId":"108c8472-da53-4c4f-b0c5-9c33dd7c8428"},"outputs":[{"name":"stdout","output_type":"stream","text":["Model: \"model\"\n","_________________________________________________________________\n"," Layer (type)                Output Shape              Param #   \n","=================================================================\n"," input_1 (InputLayer)        [(None, 48, 48, 3)]       0         \n","                                                                 \n"," densenet169 (Functional)    (None, 1, 1, 1664)        12642880  \n","                                                                 \n"," global_average_pooling2d (  (None, 1664)              0         \n"," GlobalAveragePooling2D)                                         \n","                                                                 \n"," dense (Dense)               (None, 256)               426240    \n","                                                                 \n"," dropout (Dropout)           (None, 256)               0         \n","                                                                 \n"," dense_1 (Dense)             (None, 1024)              263168    \n","                                                                 \n"," dropout_1 (Dropout)         (None, 1024)              0         \n","                                                                 \n"," dense_2 (Dense)             (None, 512)               524800    \n","                                                                 \n"," dropout_2 (Dropout)         (None, 512)               0         \n","                                                                 \n"," classification (Dense)      (None, 7)                 3591      \n","                                                                 \n","=================================================================\n","Total params: 13860679 (52.87 MB)\n","Trainable params: 1217799 (4.65 MB)\n","Non-trainable params: 12642880 (48.23 MB)\n","_________________________________________________________________\n"]}],"source":["\n","model = define_compile_model()\n","cl
…
