…
oàng Nguyễn Việt","userId":"17495966322171894693"},"user_tz":-420},"id":"8axbgYHKuUHY","outputId":"ca2b230d-4663-4c3d-c7d1-0da69f706c63"},"outputs":[{"name":"stdout","output_type":"stream","text":["Model: \"model_1\"\n","_________________________________________________________________\n"," Layer (type)                Output Shape              Param #   \n","=================================================================\n"," input_3 (InputLayer)        [(None, 48, 48, 3)]       0         \n","                                                                 \n"," densenet169 (Functional)    (None, 1, 1, 1664)        12642880  \n","                                                                 \n"," global_average_pooling2d_1  (None, 1664)              0         \n","  (GlobalAveragePooling2D)                                       \n","                                                                 \n"," dense_3 (Dense)             (None, 256)               426240    \n","                                                                 \n"," dropout_3 (Dropout)         (None, 256)               0         \n","                                                                 \n"," dense_4 (Dense)             (None, 1024)              263168    \n","                                                                 \n"," dropout_4 (Dropout)         (None, 1024)              0         \n","                                                                 \n"," dense_5 (Dense)             (None, 512)               524800    \n","                                                                 \n"," dropout_5 (Dropout)         (None, 512)               0         \n","                                                                 \n"," classification (Dense)      (None, 7)                 3591      \n","                                                                 \n","=================================================================\n","Total params: 13860679 (52.87 MB)\n","Trainable params: 1217799 (4.65 MB)\n","Non-trainable params: 12642880 (48.23 MB)\n","_________________________________________________________________\n"]}],"source":["model = define_compile_model()\n","clear_o
…
